Actual train time: 6:07:38

TorchModel(
  (0): Conv2d(1, 64, kernel_size=(7, 7), stride=(1, 1), padding=(3, 3))
  (1): BatchNorm2d(64, eps=1e-05, momentum=0.1, affine=True, track_running_stats=True)
  (2): ReLU()
  (3): MaxPool2d(kernel_size=3, stride=2, padding=0, dilation=1, ceil_mode=False)
  (4): BatchNorm2d(64, eps=1e-05, momentum=0.1, affine=True, track_running_stats=True)
  (5): ReLU()
  (6): Conv2d(64, 128, kernel_size=(1, 1), stride=(1, 1))
  (7): BatchNorm2d(128, eps=1e-05, momentum=0.1, affine=True, track_running_stats=True)
  (8): ReLU()
  (9): Conv2d(128, 32, kernel_size=(3, 3), stride=(1, 1), padding=(1, 1))
  (10): Dropout2d(p=0, inplace=False)
  (11): TorchConcatenate()
  (12): BatchNorm2d(96, eps=1e-05, momentum=0.1, affine=True, track_running_stats=True)
  (13): ReLU()
  (14): Conv2d(96, 128, kernel_size=(1, 1), stride=(1, 1))
  (15): BatchNorm2d(128, eps=1e-05, momentum=0.1, affine=True, track_running_stats=True)
  (16): ReLU()
  (17): Conv2d(128, 32, kernel_size=(3, 3), stride=(1, 1), padding=(1, 1))
  (18): Dropout2d(p=0, inplace=False)
  (19): TorchConcatenate()
  (20): BatchNorm2d(128, eps=1e-05, momentum=0.1, affine=True, track_running_stats=True)
  (21): ReLU()
  (22): Conv2d(128, 128, kernel_size=(1, 1), stride=(1, 1))
  (23): BatchNorm2d(128, eps=1e-05, momentum=0.1, affine=True, track_running_stats=True)
  (24): ReLU()
  (25): Conv2d(128, 32, kernel_size=(3, 3), stride=(1, 1), padding=(1, 1))
  (26): Dropout2d(p=0, inplace=False)
  (27): TorchConcatenate()
  (28): BatchNorm2d(160, eps=1e-05, momentum=0.1, affine=True, track_running_stats=True)
  (29): ReLU()
  (30): Conv2d(160, 128, kernel_size=(1, 1), stride=(1, 1))
  (31): BatchNorm2d(128, eps=1e-05, momentum=0.1, affine=True, track_running_stats=True)
  (32): ReLU()
  (33): Conv2d(128, 32, kernel_size=(3, 3), stride=(1, 1), padding=(1, 1))
  (34): Dropout2d(p=0, inplace=False)
  (35): TorchConcatenate()
  (36): BatchNorm2d(192, eps=1e-05, momentum=0.1, affine=True, track_running_stats=True)
  (37): ReLU()
  (38): Conv2d(192, 128, kernel_size=(1, 1), stride=(1, 1))
  (39): BatchNorm2d(128, eps=1e-05, momentum=0.1, affine=True, track_running_stats=True)
  (40): ReLU()
  (41): Conv2d(128, 32, kernel_size=(3, 3), stride=(1, 1), padding=(1, 1))
  (42): Dropout2d(p=0, inplace=False)
  (43): TorchConcatenate()
  (44): BatchNorm2d(224, eps=1e-05, momentum=0.1, affine=True, track_running_stats=True)
  (45): ReLU()
  (46): Conv2d(224, 128, kernel_size=(1, 1), stride=(1, 1))
  (47): BatchNorm2d(128, eps=1e-05, momentum=0.1, affine=True, track_running_stats=True)
  (48): ReLU()
  (49): Conv2d(128, 32, kernel_size=(3, 3), stride=(1, 1), padding=(1, 1))
  (50): Dropout2d(p=0, inplace=False)
  (51): TorchConcatenate()
  (52): BatchNorm2d(256, eps=1e-05, momentum=0.1, affine=True, track_running_stats=True)
  (53): ReLU()
  (54): Conv2d(256, 128, kernel_size=(1, 1), stride=(1, 1))
  (55): AvgPool2d(kernel_size=2, stride=2, padding=0)
  (56): BatchNorm2d(128, eps=1e-05, momentum=0.1, affine=True, track_running_stats=True)
  (57): ReLU()
  (58): Conv2d(128, 128, kernel_size=(1, 1), stride=(1, 1))
  (59): BatchNorm2d(128, eps=1e-05, momentum=0.1, affine=True, track_running_stats=True)
  (60): ReLU()
  (61): Conv2d(128, 32, kernel_size=(3, 3), stride=(1, 1), padding=(1, 1))
  (62): Dropout2d(p=0, inplace=False)
  (63): TorchConcatenate()
  (64): BatchNorm2d(160, eps=1e-05, momentum=0.1, affine=True, track_running_stats=True)
  (65): ReLU()
  (66): Conv2d(160, 128, kernel_size=(1, 1), stride=(1, 1))
  (67): BatchNorm2d(128, eps=1e-05, momentum=0.1, affine=True, track_running_stats=True)
  (68): ReLU()
  (69): Conv2d(128, 32, kernel_size=(3, 3), stride=(1, 1), padding=(1, 1))
  (70): Dropout2d(p=0, inplace=False)
  (71): TorchConcatenate()
  (72): BatchNorm2d(192, eps=1e-05, momentum=0.1, affine=True, track_running_stats=True)
  (73): ReLU()
  (74): Conv2d(192, 128, kernel_size=(1, 1), stride=(1, 1))
  (75): BatchNorm2d(128, eps=1e-05, momentum=0.1, affine=True, track_running_stats=True)
  (76): ReLU()
  (77): Conv2d(128, 32, kernel_size=(3, 3), stride=(1, 1), padding=(1, 1))
  (78): Dropout2d(p=0, inplace=False)
  (79): TorchConcatenate()
  (80): BatchNorm2d(224, eps=1e-05, momentum=0.1, affine=True, track_running_stats=True)
  (81): ReLU()
  (82): Conv2d(224, 128, kernel_size=(1, 1), stride=(1, 1))
  (83): BatchNorm2d(128, eps=1e-05, momentum=0.1, affine=True, track_running_stats=True)
  (84): ReLU()
  (85): Conv2d(128, 32, kernel_size=(3, 3), stride=(1, 1), padding=(1, 1))
  (86): Dropout2d(p=0, inplace=False)
  (87): TorchConcatenate()
  (88): BatchNorm2d(256, eps=1e-05, momentum=0.1, affine=True, track_running_stats=True)
  (89): ReLU()
  (90): Conv2d(256, 128, kernel_size=(1, 1), stride=(1, 1))
  (91): BatchNorm2d(128, eps=1e-05, momentum=0.1, affine=True, track_running_stats=True)
  (92): ReLU()
  (93): Conv2d(128, 32, kernel_size=(3, 3), stride=(1, 1), padding=(1, 1))
  (94): Dropout2d(p=0, inplace=False)
  (95): TorchConcatenate()
  (96): BatchNorm2d(288, eps=1e-05, momentum=0.1, affine=True, track_running_stats=True)
  (97): ReLU()
  (98): Conv2d(288, 128, kernel_size=(1, 1), stride=(1, 1))
  (99): BatchNorm2d(128, eps=1e-05, momentum=0.1, affine=True, track_running_stats=True)
  (100): ReLU()
  (101): Conv2d(128, 32, kernel_size=(3, 3), stride=(1, 1), padding=(1, 1))
  (102): Dropout2d(p=0, inplace=False)
  (103): TorchConcatenate()
  (104): BatchNorm2d(320, eps=1e-05, momentum=0.1, affine=True, track_running_stats=True)
  (105): ReLU()
  (106): Conv2d(320, 128, kernel_size=(1, 1), stride=(1, 1))
  (107): BatchNorm2d(128, eps=1e-05, momentum=0.1, affine=True, track_running_stats=True)
  (108): ReLU()
  (109): Conv2d(128, 32, kernel_size=(3, 3), stride=(1, 1), padding=(1, 1))
  (110): Dropout2d(p=0, inplace=False)
  (111): TorchConcatenate()
  (112): BatchNorm2d(352, eps=1e-05, momentum=0.1, affine=True, track_running_stats=True)
  (113): ReLU()
  (114): Conv2d(352, 128, kernel_size=(1, 1), stride=(1, 1))
  (115): BatchNorm2d(128, eps=1e-05, momentum=0.1, affine=True, track_running_stats=True)
  (116): ReLU()
  (117): Conv2d(128, 32, kernel_size=(3, 3), stride=(1, 1), padding=(1, 1))
  (118): Dropout2d(p=0, inplace=False)
  (119): TorchConcatenate()
  (120): BatchNorm2d(384, eps=1e-05, momentum=0.1, affine=True, track_running_stats=True)
  (121): ReLU()
  (122): Conv2d(384, 128, kernel_size=(1, 1), stride=(1, 1))
  (123): BatchNorm2d(128, eps=1e-05, momentum=0.1, affine=True, track_running_stats=True)
  (124): ReLU()
  (125): Conv2d(128, 32, kernel_size=(3, 3), stride=(1, 1), padding=(1, 1))
  (126): Dropout2d(p=0, inplace=False)
  (127): TorchConcatenate()
  (128): BatchNorm2d(416, eps=1e-05, momentum=0.1, affine=True, track_running_stats=True)
  (129): ReLU()
  (130): Conv2d(416, 128, kernel_size=(1, 1), stride=(1, 1))
  (131): BatchNorm2d(128, eps=1e-05, momentum=0.1, affine=True, track_running_stats=True)
  (132): ReLU()
  (133): Conv2d(128, 32, kernel_size=(3, 3), stride=(1, 1), padding=(1, 1))
  (134): Dropout2d(p=0, inplace=False)
  (135): TorchConcatenate()
  (136): BatchNorm2d(448, eps=1e-05, momentum=0.1, affine=True, track_running_stats=True)
  (137): ReLU()
  (138): Conv2d(448, 128, kernel_size=(1, 1), stride=(1, 1))
  (139): BatchNorm2d(128, eps=1e-05, momentum=0.1, affine=True, track_running_stats=True)
  (140): ReLU()
  (141): Conv2d(128, 32, kernel_size=(3, 3), stride=(1, 1), padding=(1, 1))
  (142): Dropout2d(p=0, inplace=False)
  (143): TorchConcatenate()
  (144): BatchNorm2d(480, eps=1e-05, momentum=0.1, affine=True, track_running_stats=True)
  (145): ReLU()
  (146): Conv2d(480, 128, kernel_size=(1, 1), stride=(1, 1))
  (147): BatchNorm2d(128, eps=1e-05, momentum=0.1, affine=True, track_running_stats=True)
  (148): ReLU()
  (149): Conv2d(128, 32, kernel_size=(3, 3), stride=(1, 1), padding=(1, 1))
  (150): Dropout2d(p=0, inplace=False)
  (151): TorchConcatenate()
  (152): BatchNorm2d(512, eps=1e-05, momentum=0.1, affine=True, track_running_stats=True)
  (153): ReLU()
  (154): Conv2d(512, 256, kernel_size=(1, 1), stride=(1, 1))
  (155): AvgPool2d(kernel_size=2, stride=2, padding=0)
  (156): BatchNorm2d(256, eps=1e-05, momentum=0.1, affine=True, track_running_stats=True)
  (157): ReLU()
  (158): Conv2d(256, 128, kernel_size=(1, 1), stride=(1, 1))
  (159): BatchNorm2d(128, eps=1e-05, momentum=0.1, affine=True, track_running_stats=True)
  (160): ReLU()
  (161): Conv2d(128, 32, kernel_size=(3, 3), stride=(1, 1), padding=(1, 1))
  (162): Dropout2d(p=0, inplace=False)
  (163): TorchConcatenate()
  (164): BatchNorm2d(288, eps=1e-05, momentum=0.1, affine=True, track_running_stats=True)
  (165): ReLU()
  (166): Conv2d(288, 128, kernel_size=(1, 1), stride=(1, 1))
  (167): BatchNorm2d(128, eps=1e-05, momentum=0.1, affine=True, track_running_stats=True)
  (168): ReLU()
  (169): Conv2d(128, 32, kernel_size=(3, 3), stride=(1, 1), padding=(1, 1))
  (170): Dropout2d(p=0, inplace=False)
  (171): TorchConcatenate()
  (172): BatchNorm2d(320, eps=1e-05, momentum=0.1, affine=True, track_running_stats=True)
  (173): ReLU()
  (174): Conv2d(320, 128, kernel_size=(1, 1), stride=(1, 1))
  (175): BatchNorm2d(128, eps=1e-05, momentum=0.1, affine=True, track_running_stats=True)
  (176): ReLU()
  (177): Conv2d(128, 32, kernel_size=(3, 3), stride=(1, 1), padding=(1, 1))
  (178): Dropout2d(p=0, inplace=False)
  (179): TorchConcatenate()
  (180): BatchNorm2d(352, eps=1e-05, momentum=0.1, affine=True, track_running_stats=True)
  (181): ReLU()
  (182): Conv2d(352, 128, kernel_size=(1, 1), stride=(1, 1))
  (183): BatchNorm2d(128, eps=1e-05, momentum=0.1, affine=True, track_running_stats=True)
  (184): ReLU()
  (185): Conv2d(128, 32, kernel_size=(3, 3), stride=(1, 1), padding=(1, 1))
  (186): Dropout2d(p=0, inplace=False)
  (187): TorchConcatenate()
  (188): BatchNorm2d(384, eps=1e-05, momentum=0.1, affine=True, track_running_stats=True)
  (189): ReLU()
  (190): Conv2d(384, 128, kernel_size=(1, 1), stride=(1, 1))
  (191): BatchNorm2d(128, eps=1e-05, momentum=0.1, affine=True, track_running_stats=True)
  (192): ReLU()
  (193): Conv2d(128, 32, kernel_size=(3, 3), stride=(1, 1), padding=(1, 1))
  (194): Dropout2d(p=0, inplace=False)
  (195): TorchConcatenate()
  (196): BatchNorm2d(416, eps=1e-05, momentum=0.1, affine=True, track_running_stats=True)
  (197): ReLU()
  (198): Conv2d(416, 128, kernel_size=(1, 1), stride=(1, 1))
  (199): BatchNorm2d(128, eps=1e-05, momentum=0.1, affine=True, track_running_stats=True)
  (200): ReLU()
  (201): Conv2d(128, 32, kernel_size=(3, 3), stride=(1, 1), padding=(1, 1))
  (202): Dropout2d(p=0, inplace=False)
  (203): TorchConcatenate()
  (204): BatchNorm2d(448, eps=1e-05, momentum=0.1, affine=True, track_running_stats=True)
  (205): ReLU()
  (206): Conv2d(448, 128, kernel_size=(1, 1), stride=(1, 1))
  (207): BatchNorm2d(128, eps=1e-05, momentum=0.1, affine=True, track_running_stats=True)
  (208): ReLU()
  (209): Conv2d(128, 32, kernel_size=(3, 3), stride=(1, 1), padding=(1, 1))
  (210): Dropout2d(p=0, inplace=False)
  (211): TorchConcatenate()
  (212): BatchNorm2d(480, eps=1e-05, momentum=0.1, affine=True, track_running_stats=True)
  (213): ReLU()
  (214): Conv2d(480, 128, kernel_size=(1, 1), stride=(1, 1))
  (215): BatchNorm2d(128, eps=1e-05, momentum=0.1, affine=True, track_running_stats=True)
  (216): ReLU()
  (217): Conv2d(128, 32, kernel_size=(3, 3), stride=(1, 1), padding=(1, 1))
  (218): Dropout2d(p=0, inplace=False)
  (219): TorchConcatenate()
  (220): BatchNorm2d(512, eps=1e-05, momentum=0.1, affine=True, track_running_stats=True)
  (221): ReLU()
  (222): Conv2d(512, 128, kernel_size=(1, 1), stride=(1, 1))
  (223): BatchNorm2d(128, eps=1e-05, momentum=0.1, affine=True, track_running_stats=True)
  (224): ReLU()
  (225): Conv2d(128, 32, kernel_size=(3, 3), stride=(1, 1), padding=(1, 1))
  (226): Dropout2d(p=0, inplace=False)
  (227): TorchConcatenate()
  (228): BatchNorm2d(544, eps=1e-05, momentum=0.1, affine=True, track_running_stats=True)
  (229): ReLU()
  (230): Conv2d(544, 128, kernel_size=(1, 1), stride=(1, 1))
  (231): BatchNorm2d(128, eps=1e-05, momentum=0.1, affine=True, track_running_stats=True)
  (232): ReLU()
  (233): Conv2d(128, 32, kernel_size=(3, 3), stride=(1, 1), padding=(1, 1))
  (234): Dropout2d(p=0, inplace=False)
  (235): TorchConcatenate()
  (236): BatchNorm2d(576, eps=1e-05, momentum=0.1, affine=True, track_running_stats=True)
  (237): ReLU()
  (238): Conv2d(576, 128, kernel_size=(1, 1), stride=(1, 1))
  (239): BatchNorm2d(128, eps=1e-05, momentum=0.1, affine=True, track_running_stats=True)
  (240): ReLU()
  (241): Conv2d(128, 32, kernel_size=(3, 3), stride=(1, 1), padding=(1, 1))
  (242): Dropout2d(p=0, inplace=False)
  (243): TorchConcatenate()
  (244): BatchNorm2d(608, eps=1e-05, momentum=0.1, affine=True, track_running_stats=True)
  (245): ReLU()
  (246): Conv2d(608, 128, kernel_size=(1, 1), stride=(1, 1))
  (247): BatchNorm2d(128, eps=1e-05, momentum=0.1, affine=True, track_running_stats=True)
  (248): ReLU()
  (249): Conv2d(128, 32, kernel_size=(3, 3), stride=(1, 1), padding=(1, 1))
  (250): Dropout2d(p=0, inplace=False)
  (251): TorchConcatenate()
  (252): BatchNorm2d(640, eps=1e-05, momentum=0.1, affine=True, track_running_stats=True)
  (253): ReLU()
  (254): Conv2d(640, 128, kernel_size=(1, 1), stride=(1, 1))
  (255): BatchNorm2d(128, eps=1e-05, momentum=0.1, affine=True, track_running_stats=True)
  (256): ReLU()
  (257): Conv2d(128, 32, kernel_size=(3, 3), stride=(1, 1), padding=(1, 1))
  (258): Dropout2d(p=0, inplace=False)
  (259): TorchConcatenate()
  (260): BatchNorm2d(672, eps=1e-05, momentum=0.1, affine=True, track_running_stats=True)
  (261): ReLU()
  (262): Conv2d(672, 128, kernel_size=(1, 1), stride=(1, 1))
  (263): BatchNorm2d(128, eps=1e-05, momentum=0.1, affine=True, track_running_stats=True)
  (264): ReLU()
  (265): Conv2d(128, 32, kernel_size=(3, 3), stride=(1, 1), padding=(1, 1))
  (266): Dropout2d(p=0, inplace=False)
  (267): TorchConcatenate()
  (268): BatchNorm2d(704, eps=1e-05, momentum=0.1, affine=True, track_running_stats=True)
  (269): ReLU()
  (270): Conv2d(704, 128, kernel_size=(1, 1), stride=(1, 1))
  (271): BatchNorm2d(128, eps=1e-05, momentum=0.1, affine=True, track_running_stats=True)
  (272): ReLU()
  (273): Conv2d(128, 32, kernel_size=(3, 3), stride=(1, 1), padding=(1, 1))
  (274): Dropout2d(p=0, inplace=False)
  (275): TorchConcatenate()
  (276): BatchNorm2d(736, eps=1e-05, momentum=0.1, affine=True, track_running_stats=True)
  (277): ReLU()
  (278): Conv2d(736, 128, kernel_size=(1, 1), stride=(1, 1))
  (279): BatchNorm2d(128, eps=1e-05, momentum=0.1, affine=True, track_running_stats=True)
  (280): ReLU()
  (281): Conv2d(128, 32, kernel_size=(3, 3), stride=(1, 1), padding=(1, 1))
  (282): Dropout2d(p=0, inplace=False)
  (283): TorchConcatenate()
  (284): BatchNorm2d(768, eps=1e-05, momentum=0.1, affine=True, track_running_stats=True)
  (285): ReLU()
  (286): Conv2d(768, 128, kernel_size=(1, 1), stride=(1, 1))
  (287): BatchNorm2d(128, eps=1e-05, momentum=0.1, affine=True, track_running_stats=True)
  (288): ReLU()
  (289): Conv2d(128, 32, kernel_size=(3, 3), stride=(1, 1), padding=(1, 1))
  (290): Dropout2d(p=0, inplace=False)
  (291): TorchConcatenate()
  (292): BatchNorm2d(800, eps=1e-05, momentum=0.1, affine=True, track_running_stats=True)
  (293): ReLU()
  (294): Conv2d(800, 128, kernel_size=(1, 1), stride=(1, 1))
  (295): BatchNorm2d(128, eps=1e-05, momentum=0.1, affine=True, track_running_stats=True)
  (296): ReLU()
  (297): Conv2d(128, 32, kernel_size=(3, 3), stride=(1, 1), padding=(1, 1))
  (298): Dropout2d(p=0, inplace=False)
  (299): TorchConcatenate()
  (300): BatchNorm2d(832, eps=1e-05, momentum=0.1, affine=True, track_running_stats=True)
  (301): ReLU()
  (302): Conv2d(832, 128, kernel_size=(1, 1), stride=(1, 1))
  (303): BatchNorm2d(128, eps=1e-05, momentum=0.1, affine=True, track_running_stats=True)
  (304): ReLU()
  (305): Conv2d(128, 32, kernel_size=(3, 3), stride=(1, 1), padding=(1, 1))
  (306): Dropout2d(p=0, inplace=False)
  (307): TorchConcatenate()
  (308): BatchNorm2d(864, eps=1e-05, momentum=0.1, affine=True, track_running_stats=True)
  (309): ReLU()
  (310): Conv2d(864, 128, kernel_size=(1, 1), stride=(1, 1))
  (311): BatchNorm2d(128, eps=1e-05, momentum=0.1, affine=True, track_running_stats=True)
  (312): ReLU()
  (313): Conv2d(128, 32, kernel_size=(3, 3), stride=(1, 1), padding=(1, 1))
  (314): Dropout2d(p=0, inplace=False)
  (315): TorchConcatenate()
  (316): BatchNorm2d(896, eps=1e-05, momentum=0.1, affine=True, track_running_stats=True)
  (317): ReLU()
  (318): Conv2d(896, 128, kernel_size=(1, 1), stride=(1, 1))
  (319): BatchNorm2d(128, eps=1e-05, momentum=0.1, affine=True, track_running_stats=True)
  (320): ReLU()
  (321): Conv2d(128, 32, kernel_size=(3, 3), stride=(1, 1), padding=(1, 1))
  (322): Dropout2d(p=0, inplace=False)
  (323): TorchConcatenate()
  (324): BatchNorm2d(928, eps=1e-05, momentum=0.1, affine=True, track_running_stats=True)
  (325): ReLU()
  (326): Conv2d(928, 128, kernel_size=(1, 1), stride=(1, 1))
  (327): BatchNorm2d(128, eps=1e-05, momentum=0.1, affine=True, track_running_stats=True)
  (328): ReLU()
  (329): Conv2d(128, 32, kernel_size=(3, 3), stride=(1, 1), padding=(1, 1))
  (330): Dropout2d(p=0, inplace=False)
  (331): TorchConcatenate()
  (332): BatchNorm2d(960, eps=1e-05, momentum=0.1, affine=True, track_running_stats=True)
  (333): ReLU()
  (334): Conv2d(960, 128, kernel_size=(1, 1), stride=(1, 1))
  (335): BatchNorm2d(128, eps=1e-05, momentum=0.1, affine=True, track_running_stats=True)
  (336): ReLU()
  (337): Conv2d(128, 32, kernel_size=(3, 3), stride=(1, 1), padding=(1, 1))
  (338): Dropout2d(p=0, inplace=False)
  (339): TorchConcatenate()
  (340): BatchNorm2d(992, eps=1e-05, momentum=0.1, affine=True, track_running_stats=True)
  (341): ReLU()
  (342): Conv2d(992, 128, kernel_size=(1, 1), stride=(1, 1))
  (343): BatchNorm2d(128, eps=1e-05, momentum=0.1, affine=True, track_running_stats=True)
  (344): ReLU()
  (345): Conv2d(128, 32, kernel_size=(3, 3), stride=(1, 1), padding=(1, 1))
  (346): Dropout2d(p=0, inplace=False)
  (347): TorchConcatenate()
  (348): BatchNorm2d(1024, eps=1e-05, momentum=0.1, affine=True, track_running_stats=True)
  (349): ReLU()
  (350): Conv2d(1024, 512, kernel_size=(1, 1), stride=(1, 1))
  (351): AvgPool2d(kernel_size=2, stride=2, padding=0)
  (352): BatchNorm2d(512, eps=1e-05, momentum=0.1, affine=True, track_running_stats=True)
  (353): ReLU()
  (354): Conv2d(512, 128, kernel_size=(1, 1), stride=(1, 1))
  (355): BatchNorm2d(128, eps=1e-05, momentum=0.1, affine=True, track_running_stats=True)
  (356): ReLU()
  (357): Conv2d(128, 32, kernel_size=(3, 3), stride=(1, 1), padding=(1, 1))
  (358): Dropout2d(p=0, inplace=False)
  (359): TorchConcatenate()
  (360): BatchNorm2d(544, eps=1e-05, momentum=0.1, affine=True, track_running_stats=True)
  (361): ReLU()
  (362): Conv2d(544, 128, kernel_size=(1, 1), stride=(1, 1))
  (363): BatchNorm2d(128, eps=1e-05, momentum=0.1, affine=True, track_running_stats=True)
  (364): ReLU()
  (365): Conv2d(128, 32, kernel_size=(3, 3), stride=(1, 1), padding=(1, 1))
  (366): Dropout2d(p=0, inplace=False)
  (367): TorchConcatenate()
  (368): BatchNorm2d(576, eps=1e-05, momentum=0.1, affine=True, track_running_stats=True)
  (369): ReLU()
  (370): Conv2d(576, 128, kernel_size=(1, 1), stride=(1, 1))
  (371): BatchNorm2d(128, eps=1e-05, momentum=0.1, affine=True, track_running_stats=True)
  (372): ReLU()
  (373): Conv2d(128, 32, kernel_size=(3, 3), stride=(1, 1), padding=(1, 1))
  (374): Dropout2d(p=0, inplace=False)
  (375): TorchConcatenate()
  (376): BatchNorm2d(608, eps=1e-05, momentum=0.1, affine=True, track_running_stats=True)
  (377): ReLU()
  (378): Conv2d(608, 128, kernel_size=(1, 1), stride=(1, 1))
  (379): BatchNorm2d(128, eps=1e-05, momentum=0.1, affine=True, track_running_stats=True)
  (380): ReLU()
  (381): Conv2d(128, 32, kernel_size=(3, 3), stride=(1, 1), padding=(1, 1))
  (382): Dropout2d(p=0, inplace=False)
  (383): TorchConcatenate()
  (384): BatchNorm2d(640, eps=1e-05, momentum=0.1, affine=True, track_running_stats=True)
  (385): ReLU()
  (386): Conv2d(640, 128, kernel_size=(1, 1), stride=(1, 1))
  (387): BatchNorm2d(128, eps=1e-05, momentum=0.1, affine=True, track_running_stats=True)
  (388): ReLU()
  (389): Conv2d(128, 32, kernel_size=(3, 3), stride=(1, 1), padding=(1, 1))
  (390): Dropout2d(p=0, inplace=False)
  (391): TorchConcatenate()
  (392): BatchNorm2d(672, eps=1e-05, momentum=0.1, affine=True, track_running_stats=True)
  (393): ReLU()
  (394): Conv2d(672, 128, kernel_size=(1, 1), stride=(1, 1))
  (395): BatchNorm2d(128, eps=1e-05, momentum=0.1, affine=True, track_running_stats=True)
  (396): ReLU()
  (397): Conv2d(128, 32, kernel_size=(3, 3), stride=(1, 1), padding=(1, 1))
  (398): Dropout2d(p=0, inplace=False)
  (399): TorchConcatenate()
  (400): BatchNorm2d(704, eps=1e-05, momentum=0.1, affine=True, track_running_stats=True)
  (401): ReLU()
  (402): Conv2d(704, 128, kernel_size=(1, 1), stride=(1, 1))
  (403): BatchNorm2d(128, eps=1e-05, momentum=0.1, affine=True, track_running_stats=True)
  (404): ReLU()
  (405): Conv2d(128, 32, kernel_size=(3, 3), stride=(1, 1), padding=(1, 1))
  (406): Dropout2d(p=0, inplace=False)
  (407): TorchConcatenate()
  (408): BatchNorm2d(736, eps=1e-05, momentum=0.1, affine=True, track_running_stats=True)
  (409): ReLU()
  (410): Conv2d(736, 128, kernel_size=(1, 1), stride=(1, 1))
  (411): BatchNorm2d(128, eps=1e-05, momentum=0.1, affine=True, track_running_stats=True)
  (412): ReLU()
  (413): Conv2d(128, 32, kernel_size=(3, 3), stride=(1, 1), padding=(1, 1))
  (414): Dropout2d(p=0, inplace=False)
  (415): TorchConcatenate()
  (416): BatchNorm2d(768, eps=1e-05, momentum=0.1, affine=True, track_running_stats=True)
  (417): ReLU()
  (418): Conv2d(768, 128, kernel_size=(1, 1), stride=(1, 1))
  (419): BatchNorm2d(128, eps=1e-05, momentum=0.1, affine=True, track_running_stats=True)
  (420): ReLU()
  (421): Conv2d(128, 32, kernel_size=(3, 3), stride=(1, 1), padding=(1, 1))
  (422): Dropout2d(p=0, inplace=False)
  (423): TorchConcatenate()
  (424): BatchNorm2d(800, eps=1e-05, momentum=0.1, affine=True, track_running_stats=True)
  (425): ReLU()
  (426): Conv2d(800, 128, kernel_size=(1, 1), stride=(1, 1))
  (427): BatchNorm2d(128, eps=1e-05, momentum=0.1, affine=True, track_running_stats=True)
  (428): ReLU()
  (429): Conv2d(128, 32, kernel_size=(3, 3), stride=(1, 1), padding=(1, 1))
  (430): Dropout2d(p=0, inplace=False)
  (431): TorchConcatenate()
  (432): BatchNorm2d(832, eps=1e-05, momentum=0.1, affine=True, track_running_stats=True)
  (433): ReLU()
  (434): Conv2d(832, 128, kernel_size=(1, 1), stride=(1, 1))
  (435): BatchNorm2d(128, eps=1e-05, momentum=0.1, affine=True, track_running_stats=True)
  (436): ReLU()
  (437): Conv2d(128, 32, kernel_size=(3, 3), stride=(1, 1), padding=(1, 1))
  (438): Dropout2d(p=0, inplace=False)
  (439): TorchConcatenate()
  (440): BatchNorm2d(864, eps=1e-05, momentum=0.1, affine=True, track_running_stats=True)
  (441): ReLU()
  (442): Conv2d(864, 128, kernel_size=(1, 1), stride=(1, 1))
  (443): BatchNorm2d(128, eps=1e-05, momentum=0.1, affine=True, track_running_stats=True)
  (444): ReLU()
  (445): Conv2d(128, 32, kernel_size=(3, 3), stride=(1, 1), padding=(1, 1))
  (446): Dropout2d(p=0, inplace=False)
  (447): TorchConcatenate()
  (448): BatchNorm2d(896, eps=1e-05, momentum=0.1, affine=True, track_running_stats=True)
  (449): ReLU()
  (450): Conv2d(896, 128, kernel_size=(1, 1), stride=(1, 1))
  (451): BatchNorm2d(128, eps=1e-05, momentum=0.1, affine=True, track_running_stats=True)
  (452): ReLU()
  (453): Conv2d(128, 32, kernel_size=(3, 3), stride=(1, 1), padding=(1, 1))
  (454): Dropout2d(p=0, inplace=False)
  (455): TorchConcatenate()
  (456): BatchNorm2d(928, eps=1e-05, momentum=0.1, affine=True, track_running_stats=True)
  (457): ReLU()
  (458): Conv2d(928, 128, kernel_size=(1, 1), stride=(1, 1))
  (459): BatchNorm2d(128, eps=1e-05, momentum=0.1, affine=True, track_running_stats=True)
  (460): ReLU()
  (461): Conv2d(128, 32, kernel_size=(3, 3), stride=(1, 1), padding=(1, 1))
  (462): Dropout2d(p=0, inplace=False)
  (463): TorchConcatenate()
  (464): BatchNorm2d(960, eps=1e-05, momentum=0.1, affine=True, track_running_stats=True)
  (465): ReLU()
  (466): Conv2d(960, 128, kernel_size=(1, 1), stride=(1, 1))
  (467): BatchNorm2d(128, eps=1e-05, momentum=0.1, affine=True, track_running_stats=True)
  (468): ReLU()
  (469): Conv2d(128, 32, kernel_size=(3, 3), stride=(1, 1), padding=(1, 1))
  (470): Dropout2d(p=0, inplace=False)
  (471): TorchConcatenate()
  (472): BatchNorm2d(992, eps=1e-05, momentum=0.1, affine=True, track_running_stats=True)
  (473): ReLU()
  (474): Conv2d(992, 128, kernel_size=(1, 1), stride=(1, 1))
  (475): BatchNorm2d(128, eps=1e-05, momentum=0.1, affine=True, track_running_stats=True)
  (476): ReLU()
  (477): Conv2d(128, 32, kernel_size=(3, 3), stride=(1, 1), padding=(1, 1))
  (478): Dropout2d(p=0, inplace=False)
  (479): TorchConcatenate()
  (480): BatchNorm2d(1024, eps=1e-05, momentum=0.1, affine=True, track_running_stats=True)
  (481): ReLU()
  (482): GlobalAvgPool2d()
  (483): Linear(in_features=1024, out_features=10, bias=True)
)
